…
2019-04-05 11:57:56,520 - main.py[line:80] - INFO: patient_identifiers: ['sub001', 'sub002', 'sub003', 'sub004', 'sub005', 'sub006', 'sub007', 'sub008', 'sub009', 'sub010', 'sub011', 'sub012', 'sub013', 'sub014', 'sub015', 'sub016', 'sub017', 'sub018', 'sub019', 'sub020', 'sub021', 'sub022', 'sub023', 'sub024', 'sub025', 'sub026', 'sub027', 'sub028', 'sub029', 'sub030', 'sub031', 'sub032', 'sub033', 'sub034', 'sub036', 'sub037', 'sub038', 'sub039', 'sub040']
2019-04-05 11:57:56,520 - main.py[line:81] - INFO: patient_labels: [0, 1, 0, 0, 0, 0, 0, 0, 0, 0, 0, 0, 0, 0, 0, 0, 0, 0, 0, 0, 0, 0, 0, 0, 0, 0, 0, 0, 0, 0, 0, 0, 2, 0, 1, 0, 1, 0, 2]
2019-04-05 11:57:56,542 - main.py[line:143] - INFO: num_classes: 3
2019-04-05 11:57:56,626 - main.py[line:148] - INFO: VGG(
  (features): Sequential(
    (0): Conv2d(1, 64, kernel_size=(3, 3), stride=(1, 1), padding=(1, 1))
    (1): BatchNorm2d(64, eps=1e-05, momentum=0.1, affine=True, track_running_stats=True)
    (2): ReLU(inplace)
    (3): MaxPool2d(kernel_size=2, stride=2, padding=0, dilation=1, ceil_mode=False)
    (4): Conv2d(64, 128, kernel_size=(3, 3), stride=(1, 1), padding=(1, 1))
    (5): BatchNorm2d(128, eps=1e-05, momentum=0.1, affine=True, track_running_stats=True)
    (6): ReLU(inplace)
    (7): MaxPool2d(kernel_size=2, stride=2, padding=0, dilation=1, ceil_mode=False)
    (8): Conv2d(128, 256, kernel_size=(3, 3), stride=(1, 1), padding=(1, 1))
    (9): BatchNorm2d(256, eps=1e-05, momentum=0.1, affine=True, track_running_stats=True)
    (10): ReLU(inplace)
    (11): Conv2d(256, 256, kernel_size=(3, 3), stride=(1, 1), padding=(1, 1))
    (12): BatchNorm2d(256, eps=1e-05, momentum=0.1, affine=True, track_running_stats=True)
    (13): ReLU(inplace)
    (14): MaxPool2d(kernel_size=2, stride=2, padding=0, dilation=1, ceil_mode=False)
    (15): Conv2d(256, 512, kernel_size=(3, 3), stride=(1, 1), padding=(1, 1))
    (16): BatchNorm2d(512, eps=1e-05, momentum=0.1, affine=True, track_running_stats=True)
    (17): ReLU(inplace)
    (18): Conv2d(512, 512, kernel_size=(3, 3), stride=(1, 1), padding=(1, 1))
    (19): BatchNorm2d(512, eps=1e-05, momentum=0.1, affine=True, track_running_stats=True)
    (20): ReLU(inplace)
    (21): MaxPool2d(kernel_size=2, stride=2, padding=0, dilation=1, ceil_mode=False)
    (22): Conv2d(512, 512, kernel_size=(3, 3), stride=(1, 1), padding=(1, 1))
    (23): BatchNorm2d(512, eps=1e-05, momentum=0.1, affine=True, track_running_stats=True)
    (24): ReLU(inplace)
    (25): Conv2d(512, 512, kernel_size=(3, 3), stride=(1, 1), padding=(1, 1))
    (26): BatchNorm2d(512, eps=1e-05, momentum=0.1, affine=True, track_running_stats=True)
    (27): ReLU(inplace)
    (28): MaxPool2d(kernel_size=2, stride=2, padding=0, dilation=1, ceil_mode=False)
    (29): AvgPool2d(kernel_size=1, stride=1, padding=0)
  )
  (classifier): Linear(in_features=131072, out_features=3, bias=True)
)
2019-04-05 11:57:56,626 - main.py[line:154] - CRITICAL: Start training
2019-04-05 11:57:59,429 - /data/weishizheng/wuzhengtao/ProjectMRI/models.py[line:260] - INFO: Epoch 1/5
2019-04-05 11:58:02,850 - /data/weishizheng/wuzhengtao/ProjectMRI/models.py[line:125] - INFO: Step [10/95] Train Loss: 5.227327346801758e-05
2019-04-05 11:58:06,164 - /data/weishizheng/wuzhengtao/ProjectMRI/models.py[line:125] - INFO: Step [20/95] Train Loss: 0.5448458194732666
…
